Code/Main Analysis/HRS-LLFS val/HRS_LLFS_overlap_mod.pt (torch, 238134 bytes, 25 tensors)

module1.fc1.weight f4 [32, 1066]
00000000: e057 e8bc 82f0 69bb b5f5 44bb 8198 d23b
00000010: b939 79bb 303b ccbc a386 58bd 3747 03bc
00000020: 3d74 403c 9772 febc c0fd 1fbb da0a b73c
00000030: bbec afbc 2d09 44bc d7b8 b8bc 9d2e 813c
00000040: e8e4 053d 59ab 9abc 9c4c 823c 83ac cf3b
00000050: a607 f8bc eb4a 3dba b1bd 85bc 9c69 93bb
00000060: 5f8d 22bd 9ab9 5abd 57b2 813c 057b aaba
00000070: 10b1 45bd fb7e 2e3d aa96 423b 28c5 e43c
00000080: 2937 883d 0e98 51bc f4e4 73bd a725 c23b
00000090: e078 e2bc 10cd abbd 5fae 6f3d 35a9 233c
000000a0: 8ae9 0a3d 7022 ab3c dc1b 97bc c697 8ebc
000000b0: be75 92bc a5cf 97bd 3e70 86bb f7e7 df3d
000000c0: 73db bbbb ab85 91bb e343 9b3b 8c4c 42bd
000000d0: 9629 c83b e49e 1fbd 761a f4b9 5e28 993c
000000e0: a1ab 993b 767c 0c3a 5938 8f3d b406 12bd
000000f0: 57d4 603a d631 d7bb a5fe a63d 817c c2bc
00000100: 41c0 253b e54a 48bd 8307 65bc eb4b 2bba
00000110: c05a e2bc 0115 6f3b 7390 77bc 8048 9b3d
00000120: f6fa 32bd e638 bdbc 8ebb 303c 8a89 a6bb
00000130: 157a 633d f1a7 7fbc 575d 86bb cbcc 123d
00000140: 19ba 96bc 4875 a0bc 0ad2 e03c bdb9 803d
00000150: ad8a 28bd 64d7 30bc f61c 823d 436c fe3b
00000160: 282d 49bd dac6 a53c ac7c 383d aea4 94ba
00000170: 3473 003d f999 58bc 165b 273c ea7f bfbc
00000180: 4d0c a5bc a860 12bd 9aad 2b3d ef0a 303d
00000190: 13ed 023d f0ba 63bc b1fc e6bb 3c44 573c
000001a0: fa1f db3c 6bfc 53bd bac8 483d 3b0f 993b
000001b0: a14b 2f3c df3e a73c 641b b13c 95f6 50bc
000001c0: 9186 90bc 931c cbbc b5e2 9fbc ca70 60bd
000001d0: ef5c 443d 86cf 1b3d 328b cabc 4cee cd39
000001e0: d3ee c1bb b162 ca3c 95aa 443c 0722 2ebd
000001f0: c103 aebc 40ac 923c 2885 8dbc a636 0bbd
00000200: ccad 15bd fe40 6fbd 285f 913c 5aa9 38bd
00000210: c231 553c ebb8 103d a90d dd3b f6e1 713b
00000220: 9f2b 113d 1568 d73c 6324 a83d 993b 0e3d
00000230: e940 14bd c1e5 773c 2127 b3bd 9a87 3abc
00000240: 29f3 b238 03e3 49ba b525 f0ba 613e 26bc
00000250: fc1b f7bc c137 3d3d 0a2f b53c 9894 2c3c
00000260: 2e10 883c 104a 7a3d 627f 0abc fa84 8dba
00000270: bdf1 7e3c e7bc 793b 51d6 abbc f3ee 04bd
00000280: c11c 90bc 9438 d13c d26e 413d b27e de3c
00000290: 6322 3dbd 2eb4 dcba f2f4 48bb 2e26 82bc
000002a0: 0e48 e2bc 589e c33d 8033 0d3c da68 91bc
000002b0: 0334 a1bc 153e 623c c958 7b3d 58e0 cc3c
000002c0: 6cfd 65bc f966 5cbd a21a 7fbc 84f2 54bc
000002d0: b549 76bd c043 843c 682d b4bc 2cf8 4ebd
000002e0: 7f5b 03bc 502b cfbc 39aa c03c ba95 4a3d
000002f0: 052d edbc 582b e13c 0ad8 d4bc ac37 d23c
00000300: 922b 003d 0324 853a 7b67 0d3d cbc9 19bd
00000310: 26ce ff3b 4b02 623d d092 903d 1811 22bc
00000320: a0d6 8abd 57e9 a9bd 5cf9 b13c e1cb c43c
00000330: 6768 49bb ef5c afba 1cf1 053d b6d0 cf3b
00000340: 0cca c03c dc80 b83c b05c d0bc 4a84 433b
00000350: e422 ee3c b340 bf3d e708 193d 4ae7 2d3d
00000360: 7af8 bb3b 2f7f 483d 610c 273c 18db c13d
00000370: d928 023d 7c94 963d f309 87bb 18ad b7bb
00000380: e9e4 ed3c 2072 9f3c 489a 2bbd 3b23 2dbc
00000390: 1b49 54bd 4ce6 36bd 5136 c33b 14fb 38bc
000003a0: d789 c8bc fb1f 9f3c eac7 97bc 974a 8abd
000003b0: 3205 34bd 5e0c 0b3c 2d27 eebc 9e64 dc3b
000003c0: a252 833d 167a 9c3c 5f50 09bd 5817 8a3c
000003d0: 4072 e93c 0e78 77bb 877d 8c3d 8180 65bc
000003e0: 255d aebc ae88 0b3d f0b3 20bd 681d b8bc
000003f0: 4e91 173d 094b 26bd c301 913c 9c8e a7bc
-0.028362215 -0.0035696332 -0.003005368 0.0064268713 -0.003802879 -0.024930567 -0.052862775 -0.008012584
0.011746463 -0.0310605 -0.0024412721 0.022344042 -0.021475187 -0.011965078 -0.022549076 0.015769297
0.032689005 -0.018880533 0.01590567 0.0063377037 -0.030277085 -0.00072209415 -0.016325803 -0.0044986736
-0.039685603 -0.05339966 0.01583211 -0.0013006633 -0.048264563 0.042601567 0.0029691854 0.027926043
0.06651146 -0.0127926 -0.05954452 0.0059248987 -0.027645528 -0.08388722 0.058515903 0.009989073
0.033914126 0.020890445 -0.018445902 -0.017406356 -0.01787841 -0.07412652 -0.004102736 0.10932916
-0.0057329475 -0.0044409833 0.0047383173 -0.047436282 0.006108473 -0.03896989 -0.00046559022 0.018696006
0.004689649 0.00053591223 0.06993169 -0.035650924 0.0008576563 -0.00656722 0.08154038 -0.023741009
0.0025291594 -0.04889955 -0.013978842 -0.0006534445 -0.027631164 0.0036481025 -0.015110123 0.07582188
-0.043696366 -0.02309842 0.010786904 -0.005082314 0.05553635 -0.015604005 -0.0041004824 0.035839837
-0.018399285 -0.019587174 0.027443904 0.06285427 -0.041147877 -0.010793541 0.0635318 0.0077643706
-0.04911533 0.020236421 0.04504077 -0.0011340582 0.031359866 -0.013220304 0.010214588 -0.023376424
-0.020147467 -0.03573671 0.041913606 0.042979177 0.031964373 -0.01389955 -0.007049166 0.013138827
0.026748646 -0.051754396 0.049019553 0.004671005 0.010699184 0.020415721 0.021619506 -0.012754102
-0.017642291 -0.024793899 -0.019517282 -0.054795064 0.04794019 0.038039707 -0.024724577 0.00039278192
-0.0059183626 0.024705263 0.012003561 -0.04251292 -0.021242024 0.0179044 -0.017275408 -0.033987664
-0.0365427 -0.05841159 0.01774557 -0.04508338 0.0130123515 0.0353326 0.006746013 0.0036908365
0.03544199 0.026294747 0.08210065 0.034724806 -0.036194716 0.015130461 -0.087476976 -0.011384869
8.5329935e-05 -0.0007701369 -0.0018321784 -0.010146708 -0.030164711 0.04619575 0.022117157 0.010533474
0.016609278 0.061105788 -0.008453222 -0.0010797076 0.015560565 0.003810698 -0.020976217 -0.032454442
-0.017591836 0.025539674 0.047224827 0.027160022 -0.04617537 -0.0016838366 -0.0030663577 -0.015887346
-0.027622249 0.09551686 0.008618236 -0.017750192 -0.019678121 0.013808747 0.06136397 0.02500932
-0.014037471 -0.05380914 -0.015570315 -0.012997273 -0.060128886 0.016145587 -0.021994308 -0.050529644
-0.00801742 -0.025289208 0.023518668 0.049459197 -0.028952131 0.027486488 -0.025981922 0.025661312
0.031291552 0.0010157827 0.034522515 -0.03754596 0.007806557 0.055177968 0.07059252 -0.009891771
-0.06779218 -0.08296459 0.02172535 0.024022998 -0.0030732395 -0.0013379137 0.032700643 0.006342019
0.023533843 0.022522382 -0.025434822 0.002983349 0.029069372 0.09338512 0.037362006 0.042456903
0.005736408 0.048949417 0.010195822 0.09465617 0.031777237 0.0735254 -0.004121059 -0.005605351
0.029039817 0.019463599 -0.04189518 -0.010567482 -0.05182753 -0.044653222 0.0059574028 -0.01129033
-0.02447979 0.01942443 -0.018527944 -0.06752508 -0.043950267 0.008486835 -0.029071415 0.0067258617
0.06412245 0.019101184 -0.033523913 0.016856834 0.028496861 -0.0037760767 0.0685988 -0.0140076885
-0.02128465 0.034065895 -0.0392341 -0.02247496 0.037003808 -0.040598903 0.017701035 -0.020453744

module1.fc1.bias f4 [32]
00000000: c236 a93d 2a7f 2f3e 2fef ff3d f5b5 1e3e
00000010: 111b 05be 1c3a d9bd 5a1a 043e 4dfc 0bbe
00000020: b8c6 1bbe 3015 ed3d cf3d a0bd 198a 1f3e
00000030: caeb ecbd 9594 f6bd 8af8 0c3e 079a 10be
00000040: 57b7 253e a890 413e 8617 b73d 5514 083e
00000050: 01e6 11be 0435 9f3d de08 073e 8d1d dfbd
00000060: ab9e 223e 1f5a a63d 4e99 003e 87ad 223e
00000070: 6c0a f03d fc03 eb3d 8bce fbbd 4cb5 01be
0.08262397 0.17138353 0.124967925 0.15499099 -0.12998606 -0.106067866 0.12900677 -0.13670464
-0.15212524 0.11576307 -0.07824289 0.15580024 -0.11568411 -0.120400585 0.13766685 -0.14121257
0.1618322 0.18902838 0.089400336 0.13289006 -0.14247896 0.07773784 0.13186976 -0.10894308
0.1588084 0.08122658 0.12558481 0.15886508 0.11720738 0.11475369 -0.12295254 -0.12666816

module1.fc2.weight f4 [8, 32]
00000000: 4315 0e3e 957e 973d d23e db3d eeb2 c83d
00000010: 6471 31be e66d 7d3d 33de 523e 4379 15be
00000020: c8e7 40bb 11ac 703e a75a 71be 986e 9b3d
00000030: bcae 7cbe ee9d 0cbd 5904 403e 8851 17be
00000040: 63b5 41bb fe37 ebbd dbb3 433e f256 1e3e
00000050: fcbe 61be 8ac3 593e db3c 4d3e bd2f 8fbd
00000060: 09b6 9d3c 0a98 0a3e 1e62 433e 175d 57bd
00000070: fdd3 263e 6add a4bd 441a cd3a ebba 6cbe
00000080: eb55 6b3d ee06 883e 47cb 103e 0713 593e
00000090: b769 13bc 4f32 04be b005 273e a8a7 9cbc
000000a0: af04 19be 4c01 fc3d 744d 83be 7bfe c33d
000000b0: 405f e9b9 8c6b 76be 40f8 873e 22eb 3ebe
000000c0: 4512 393d b5d4 c33d 8975 113e 5769 023e
000000d0: 42a5 a0bd 693d 043e 24eb d83e e951 21be
000000e0: c80d ed3d da42 be3d 6560 cb3d faef 023e
000000f0: 7a08 b43d 9b00 443e 4d49 30be 7ca8 11be
00000100: 14e5 523e 695c 3c3e b537 0b3d 22c5 4c3e
00000110: 7d5e 21be d2e3 3cbb 70f8 8a3e f27b 60be
00000120: 99ef e7bd 41b6 893e 2722 63bd 9669 103d
00000130: fd1e f1bd 1a2e 5dbe 1233 af3d f259 3b3e
00000140: 04ec 543e 30ea 5a3e 9eb6 39bc 030e aa3d
00000150: 931c 6abe 0ee4 8abd e2af 77bd 6cb8 2ebd
00000160: cbfa e43c cf9e 4e3e 43b8 a33c 954e 05bd
00000170: 2fdb 303d 1e21 a0bc 2e98 48be f9e5 a2bd
00000180: 6455 f63d b1a8 383e 8d19 0b3e 142b fdbb
00000190: d509 13be 2a25 30be bc67 693e 2794 83be
000001a0: ac84 6fbe 0c14 303c fc3e e3bc 8aad 263e
000001b0: d849 543c bf78 24be d872 4f3e af88 87bd
000001c0: 445a 343e e084 143e 2df7 d0bb 64df 363e
000001d0: 0004 adbd f596 3cbd 008f a63d 24bb 7ebe
000001e0: 992b 563d cd3b d7bd 66f4 133e bb06 5e3e
000001f0: ab86 433e 997a 453e d915 753d 8962 613c
00000200: da42 1a3e b750 193e d337 123e 2b79 7b3e
00000210: 0216 58be 1ca0 c6bd 9f1f 87ba 34e1 3cbe
00000220: 2bde 16be 32c5 71bc de80 bbbd e861 a13e
00000230: a26a 85be c227 403c 2c11 9a3e cbc0 383b
00000240: bb7f d23d cb65 313e b1a2 1e3e 53f2 4a3e
00000250: 10d6 97be ba75 403e 21e5 e53d b1b9 8bbd
00000260: 9f61 1b3e fe1e 063e 2e94 cc3c 96ad 023e
00000270: 6c1d 703e 43ed 6c3e dc7e 8cbe 0ca2 87be
00000280: 3c8f 61bd 0237 0d3e b829 563e 5eee df3d
00000290: 7384 8abe 02f5 0cbe f668 abbd 70f8 3abe
000002a0: 5ecd dbbd c6c5 453d 7856 31be ec99 523d
000002b0: 2234 57be c325 03be c4c7 783e 3000 c1bd
000002c0: 4ff3 913e d234 f53d dae5 123e 811b 4d3e
000002d0: 0cb1 56be 5096 313e f529 ea3c c6fe 55be
000002e0: ef10 113e 548c 903d 3d11 0f3e 609c 233e
000002f0: a3e8 2a3e 10ad 373e 0429 3abe 659a 59be
00000300: 1ef0 373d 4a0f 68be d602 9f3a f133 99be
00000310: 98e7 103e a207 9b3e 03ba 1bbe 0299 433e
00000320: df20 453e 3f9b 053e cd88 03bd a801 9ebd
00000330: 9d69 c83d 601a d03d 5b3f 8cbe 0429 6d3e
00000340: ccb0 98be 7af5 dcbd d1cd 1c3d 3fa9 76bd
00000350: 8092 e23d c1f4 42be 61e8 67be 0247 ce3d
00000360: 96b2 8f3e 1741 343e 9764 d6bb a41b f53d
00000370: 08e2 8dbd 4401 1f3c 03ec 9b3c b924 eebc
00000380: b6f3 253e f0f7 e6bc 800b 743c 2074 e63d
00000390: d757 6cbb 67af a4bc 9bef d33d 6907 29be
000003a0: 8b81 04be 7c9c 8bbd ee4d f9bd 3662 353e
000003b0: 688f 65bd 8e3a 22be 45e9 e63d 1581 dcbd
000003c0: e298 78bd c40a fe3d ff15 e03d bf3e 173e
000003d0: 4640 f8bd 9ead d03d 9700 043e 9c6d 133c
000003e0: 8a77 3c3e 60fa 0d3d a7ca 5e3e 1329 253e
000003f0: 141e a0bd 6bc6 283d 4bb1 c63d 3a93 d63c
0.13875298 0.073971905 0.107053414 0.09799753 -0.17328411 0.061872385 0.20592575 -0.14597039
-0.0029435027 0.23503138 -0.23569737 0.075894535 -0.24676031 -0.0343303 0.18751658 -0.14777195
-0.0029557578 -0.11485289 0.19111578 0.15462855 -0.22045511 0.21265998 0.20042746 -0.06991527
0.01925184 0.13534561 0.19080397 -0.05257901 0.16291805 -0.08050044 0.0015648087 -0.23118179
0.057454985 0.26567787 0.14140044 0.21198665 -0.008997372 -0.12909816 0.16310763 -0.019122913
-0.14943193 0.12304935 -0.2564503 0.09570023 -0.0004451219 -0.24064463 0.26556587 -0.18644384
0.04518344 0.09562055 0.14204992 0.12735496 -0.078440204 0.12914051 0.42366898 -0.15753902
0.11574894 0.09290095 0.09930495 0.12786856 0.08790679 0.19140856 -0.17215462 -0.14224428
0.20595199 0.18394627 0.033988673 0.19997075 -0.157587 -0.0028822315 0.27142668 -0.21922281
-0.113249965 0.2689686 -0.055452492 0.035256945 -0.11773489 -0.21599618 0.08554663 0.1829603
0.20793158 0.21378398 -0.011335043 0.08303454 -0.22862463 -0.06781779 -0.06047047 -0.042656347
0.027951619 0.20177768 0.019985324 -0.032545645 0.04317778 -0.019547042 -0.19589302 -0.0795402
0.12028006 0.180331 0.13583966 -0.0077260826 -0.1435922 -0.17201677 0.22793478 -0.2569897
-0.23390454 0.010746967 -0.027739994 0.16277137 0.012957059 -0.16061686 0.20258653 -0.06617867
0.17612559 0.14503813 -0.006377122 0.17858654 -0.084480286 -0.0460424 0.08132744 -0.24876076
0.05228767 -0.10509453 0.144487 0.21682255 0.1909434 0.19285049 0.05983529 0.013756403
0.15064564 0.14972197 0.14279108 0.2455794 -0.21102145 -0.09698507 -0.0010309106 -0.18445283
-0.14733188 -0.014756488 -0.09155439 0.3152001 -0.26057917 0.011728229 0.30091226 0.0028191085
0.10278269 0.17323987 0.1549175 0.19819002 -0.29655504 0.18794909 0.112253435 -0.06822527
0.15173958 0.1309776 0.024973001 0.1276153 0.23448724 0.23137383 -0.27440536 -0.2649082
-0.05506824 0.13790515 0.20914352 0.10934137 -0.27054176 -0.13765338 -0.08369629 -0.18258834
-0.1073253 0.048284315 -0.17318141 0.051416323 -0.21015981 -0.12807374 0.24294955 -0.09423864
0.28505942 0.11972965 0.14345494 0.20030023 -0.20965976 0.17342496 0.02858446 -0.2089797
0.14166616 0.070580155 0.1397142 0.15977621 0.16690306 0.17937112 -0.18179709 -0.21250303
0.044906728 -0.22662082 0.0012131582 -0.2992244 0.14150846 0.3027926 -0.15207677 0.19101337
0.1925082 0.13047503 -0.032112885 -0.0771516 0.09785769 0.10161281 -0.27392086 0.23160177
-0.29822385 -0.107890084 0.03828222 -0.06022 0.11063099 -0.19038679 -0.2264724 0.100721374
0.28065938 0.17602955 -0.006542753 0.11968163 -0.06927878 0.009704892 0.019033438 -0.029070245
0.1620625 -0.028194398 0.01489532 0.11252618 -0.0036063099 -0.02010317 0.103484355 -0.16506733
-0.12940042 -0.068169564 -0.12173067 0.17713246 -0.056044966 -0.1584265 0.112749614 -0.10766808
-0.060692675 0.12404397 0.109416954 0.1477003 -0.12121634 0.10189365 0.1289085 0.008998301
0.18404976 0.034662604 0.21756993 0.1612895 -0.07818237 0.04120485 0.09701785 0.02619325

module1.fc2.bias f4 [8]
00000000: 23f3 f2bc c57d 713e bad8 583e 8055 313c
00000010: 7967 8a3e 71f6 883e 39a0 72be 1276 2e3e
-0.029656952 0.23583134 0.21176425 0.010823607 0.27032068 0.2675052 -0.23693933 0.17037228

module1.fc3.weight f4 [1, 8]
00000000: 5d58 db3e 487e b63e eb1c 823e a981 8e3e
00000010: 5b70 813e 479c fc3e 1b2e a0be 9b1f 223e
0.42840853 0.3564322 0.25412688 0.27833298 0.25281033 0.4933798 -0.31285176 0.15832369

module2.fc1.weight f4 [32, 459]
00000000: fd9a b1bb d40c 9a3d d94e 22bc 3585 b5bc
00000010: 9bb5 08bd cb91 75ba 87fd bcbd 5169 49bd
00000020: 0081 32bd c995 27bd 32c3 9b3d a4cf 0a3d
00000030: 2041 36bd d799 66bd 93f3 9dbd 5112 e83c
00000040: a6fd e8bb 49b6 4ebd d8e1 9d3d a577 06bd
00000050: 4121 29bd 3680 37bd 5b08 f6ba ba3f 273d
00000060: 999f 063c dad9 9e3d 32b7 2bbd 47a4 9dbd
00000070: 7b2a d23c 827e 103d 8dbc 823a fc21 e6ba
00000080: 3914 943b 13ef ad3b 95b6 d83a 4aae 373c
00000090: b9a4 f83c 9a76 1a3d 1086 4c3c 66dd 553d
000000a0: a75d 2bbc bd86 233c 023a 4abd 6569 5e3d
000000b0: 2352 86bd b7c4 c3bc 184e 373e 2068 3d3d
000000c0: bfa6 df3c 737e 9c3b 111a 7b3d b458 063d
000000d0: e4a0 1cbd d533 5bbd 18d0 a33d c6db 7abd
000000e0: 76da 103b e2e2 413c e6f5 50bd 4a84 313c
000000f0: eb94 1e3d 91fa b63b 36db 74bd f76e ddbd
00000100: c2bb 2cbd 64cf 8c3c d854 813b 73e3 4f3d
00000110: db27 cbbc f523 263d 4306 7f3d a7c5 d03d
00000120: fca4 4fbc c372 c93d b5db 58bd 95a3 3f3a
00000130: 6a9b ce38 180e 34bc 033b 8a3c 3338 6c3d
00000140: d017 2ebd 3c63 cdbd 190b 043e d66d a83d
00000150: 024c 1abb a292 35bb 10ea f2bb c070 a1bc
00000160: b6d0 083d 186f 8bbb 5ce4 8bbd 68a8 05bc
00000170: 5c92 693d 6419 763d 3c5d 0a3d 9a39 7d3b
00000180: 5ab4 563d 7097 12bd 2389 4d3c ed5d 52bc
00000190: 1e61 87bd c5de 8fbb 1710 5dbd 407a 6e3d
000001a0: 76b5 d6bc 6a58 033c 64c2 733d 1447 8e3c
000001b0: b583 2fb9 7dcb 53bd f987 73bd a2ca 1e3d
000001c0: adb0 dd3b 852b b83d b92e 76bd f78b 1e3c
000001d0: b442 43bd 2293 723d 8a54 2d3d 25b6 b13d
000001e0: 1d8d 3fbd 3112 85bd 6e74 0f3d 59a2 9bbd
000001f0: a930 1d3d d602 103b ea91 93bd 7a97 1c3d
00000200: 803a 113d 0ccc 54bc 2f7c 7bbc 076b e0bc
00000210: 15b2 1c3d b0ce 463c 8bca 863d 869f 2ebc
00000220: 3b0c 593d bfa4 203d f97e 403d 9eb5 a83d
00000230: 3cb9 0a3d 67fc 1d3d 3acb 553c 1cb1 dcbc
00000240: abc5 413d 1f2e 91bc 558c 0ebb f75f 15bd
00000250: d89a 0f3d 1e45 91bc 5458 29bc 47a0 89bc
00000260: 446e a23b 122a b63c c7b7 89bd e0ac 85bd
00000270: b509 dbbc 1d14 ef3b 4f01 453c 1fdc 22bc
00000280: 7fd4 02be 6f7c 6cbd 250e c13b 2664 b2bd
00000290: f84c 98bc 9975 2fbd b8cd 833c ee78 7c3d
000002a0: f90a 863d c793 e03c 8d05 c9bc 950a abbd
000002b0: 24d3 69bd cefa ff3c a6cf 22bb ba40 c23c
000002c0: c51d 08bd 4d58 40bd b090 053e 5cc3 733c
000002d0: 2e24 0bbd ff7b 2d3b d516 b4bd 2821 b13d
000002e0: 5170 c1bc ba06 84bc 3bf0 70bb 094c 983d
000002f0: b50c 3cbd a031 973d 80aa 1cbd 7a21 533c
00000300: a04f 48bd 395d 973d 2e08 9dbd 48bb a5bd
00000310: 52a5 4a3c f80b edbd d1a6 64bd c244 0bbd
00000320: fdc7 353c 61eb cd3c e409 e9bc 606d 133e
00000330: f106 7c3d 3ad0 0cbe cdcf 4f3c 937f a13d
00000340: 2fa6 abbd c179 9ebb 89cd cb3c e8fb fe3a
00000350: b193 143b e04a f53b 7215 24bd 8ce3 74bd
00000360: 95a1 f7bb 8cdf 60bd 3553 4bbc d9f7 11bd
00000370: 7403 13bd 80f5 4fbc 0a80 933d 561d 963c
00000380: 8c7d 00bc 55b6 8abd aff8 c93c 05a0 48bb
00000390: f062 98bd 806d 0dbd aba0 e7bc f898 0abd
000003a0: 58af 9fbc 31b0 cc3c 03f4 5b3d cc36 c73c
000003b0: 0882 08bc df18 d0bc 013c 21bd 5bc9 4d3d
000003c0: d087 a13d d338 73bd 14f6 223d 38ef 16bc
000003d0: da36 68bd 63c0 e0bc c10f 963d 6b05 04bd
000003e0: 4ef5 1a3d 5a47 5fbd 4ecc 93bd 7e50 793d
000003f0: 46ae 5a3d fd5d 103d 610d f33c 3904 24bd
-0.0054200874 0.07521978 -0.009906494 -0.022158245 -0.033376317 -0.0009367733 -0.09228044 -0.049172703
-0.043580055 -0.04091433 0.0760559 0.033889428 -0.0444957 -0.056299057 -0.07712474 0.028329046
-0.0071103154 -0.05046681 0.07709092 -0.032828946 -0.04129148 -0.044800006 -0.0018770801 0.04083226
0.008216762 0.07756396 -0.041922756 -0.07697349 0.025655022 0.035276897 0.0009974405 -0.0017557736
0.0045190123 0.005308041 0.0016533906 0.011210987 0.030351983 0.037710764 0.012483135 0.052213095
-0.01045934 0.009980855 -0.049371727 0.05429973 -0.06558635 -0.023897512 0.17900884 0.04624188
0.02730119 0.004775816 0.061304156 0.032799438 -0.038239375 -0.053516228 0.07998675 -0.06124475
0.002210287 0.011833878 -0.051015757 0.010834763 0.038716238 0.005584069 -0.05977937 -0.108121805
-0.042171247 0.017188735 0.0039468817 0.05075402 -0.024799278 0.040561635 0.06226183 0.10193949
-0.012673613 0.09836342 -0.052943904 0.00073104474 9.8517936e-05 -0.010989688 0.016873842 0.057670783
-0.042503178 -0.10028693 0.12894858 0.082240745 -0.002354384 -0.0027705808 -0.0074131563 -0.019707084
0.033402167 -0.0042551868 -0.068306655 -0.008157827 0.057024345 0.060082808 0.03378032 0.003863907
0.05241809 -0.035788953 0.012544903 -0.012839776 -0.066103205 -0.00439057 -0.053970423 0.058222055
-0.026209574 0.008016685 0.059511557 0.017367877 -0.00016738365 -0.051707733 -0.059455846 0.038767464
0.006765446 0.08992676 -0.060103152 0.009676925 -0.047671035 0.059222348 0.04231695 0.086773194
-0.046765435 -0.0649761 0.035023145 -0.07599325 0.038376484 0.0021974347 -0.07205565 0.038230397
0.03545618 -0.012988102 -0.015349432 -0.027394785 0.03825577 0.012134239 0.06581601 -0.010658151
0.05299018 0.039219614 0.04699609 0.08237766 0.03386806 0.038570788 0.013048941 -0.026939921
0.04730765 -0.017722188 -0.0021751125 -0.036468472 0.03505978 -0.017733153 -0.0103360005 -0.016800059
0.0049569923 0.022236858 -0.06724506 -0.06527114 -0.026738027 0.007296099 0.012024238 -0.009940176
-0.12776373 -0.057735857 0.0058915787 -0.08710508 -0.018591389 -0.04283676 0.016089305 0.061638765
0.065450616 0.027414216 -0.02453878 -0.08351628 -0.057086125 0.031247523 -0.0024843006 0.023712505
-0.033231515 -0.04695921 0.13043475 0.01487812 -0.03397005 0.0026471613 -0.08793417 0.08648902
-0.023613127 -0.016116489 -0.0036764282 0.074363776 -0.045910556 0.07382512 -0.03824854 0.012886399
-0.04890406 0.07390828 -0.07667576 -0.08092362 0.012368517 -0.115745485 -0.05582315 -0.03400112
0.011095044 0.025136651 -0.028447099 0.14397192 0.061530057 -0.13751307 0.012683821 0.07885661
-0.083813064 -0.0048362915 0.02487828 0.0019453736 0.0022671039 0.0074857324 -0.040059514 -0.059787318
-0.007557104 -0.05490069 -0.012409975 -0.035636757 -0.035891965 -0.012692809 0.07202156 0.018324535
-0.007842433 -0.06773058 0.024654714 -0.0030612957 -0.07440746 -0.034528255 -0.028274855 -0.03383729
-0.01949279 0.024986358 0.053699505 0.024318121 -0.008331783 -0.025402484 -0.039363865 0.050240856
0.07887232 -0.059380364 0.03978546 -0.009212308 -0.056692936 -0.027435487 0.073272236 -0.03223173
0.037831597 -0.054511406 -0.072167024 0.06086778 0.053388856 0.035245884 0.029669465 -0.04004309

module2.fc1.bias f4 [32]
00000000: 3a04 e33c 22db d53c 45ad 0b3e 161d 203e
00000010: e7f1 373e d412 79bd 40b2 a2bc 1fe4 82bd
00000020: 00ea 3fbd 3afc 693d 0dcc 133b edcb d33d
00000030: ae89 c9bd 0185 19bb 0f56 67bc 4023 4bbd
00000040: 1faf 9a3c 4085 463e 2fa7 033d d4d7 a13b
00000050: 983d b53d 71cf 1a3e c153 9fbd c4b1 bd3d
00000060: d157 8b3e 1407 77bd 92d1 92bd 410b 293e
00000070: 05cf 823e 5b1c 0f3e 3e8a 7abd 34b5 d73d
0.027711976 0.026105467 0.13640316 0.15636095 0.17963372 -0.06080897 -0.019860387 -0.06391167
-0.04685402 0.057125308 0.0022552044 0.1034163 -0.098407134 -0.0023425224 -0.014119639 -0.049594164
0.018882332 0.19386768 0.03214186 0.004939059 0.08849639 0.15118195 -0.07779647 0.09262422
0.27215436 -0.060309485 -0.071688786 0.165082 0.25548568 0.1397566 -0.061166994 0.10532609

module2.fc2.weight f4 [8, 32]
00000000: 9ff2 ebbd efcb 243d d386 193e 567f 8b3e
00000010: ef03 c13e 3425 88be f996 ae3d b90b 8bbe
00000020: 2e8c 7bbe 0670 21bc 6f19 d5bd 826f 273c
00000030: adc6 9cbd 9cfc 07be f6d6 99bc 7fd0 04be
00000040: 96d4 1abe b41e 913e a50e 8ebe 0f86 fcbc
00000050: 04d6 373e 8b42 443e 657a 16be 65af 5a3e
00000060: c489 2d3e b469 8dbe 0a17 6abe 37bc 713e
00000070: 27f6 1e3e 6846 1e3e 7a8f 44be 44c2 833d
00000080: f4b5 203e 38c6 56be 801d 90bd 79b6 85bc
00000090: 8b99 edbd 37d6 7c3e 0e1c d23d 0f67 633e
000000a0: c691 4e3d 71dd 063e c776 5a3e 937b 393e
000000b0: a857 0f3e 3572 5a3e a0c6 893e a774 1abc
000000c0: 29e5 043e 9b6b 3dbd 27d3 e03d 56b6 053d
000000d0: c4db 47be 7885 7bbd f67c 13be e536 53be
000000e0: 000f acbd fde1 253e f9b5 dcbc 8700 56be
000000f0: 178c 94bc ee95 fb3d 84ae 8c3e 97b0 333e
00000100: 1d2a afbd 9da0 9f3e 4b37 903e 8495 723e
00000110: c414 e83d 545b e5bd 90df 7cbc 5aee 3ebe
00000120: 1d57 573d 19f8 523e 6d8d 0bbe 188d 8a3e
00000130: fb4b eebd 20d2 68be cf97 8cbe 5802 85be
00000140: ae8b c1bd a43f 793e 34e6 60be c205 80be
00000150: 839d 353e bb01 323e 7e0f 91be 929e 7a3e
00000160: 6b3d 9c3e 2f30 9cbe 9060 42be f0a9 163e
00000170: dfdd 7f3e 1053 073e 56d0 10be 4c17 5ebe
00000180: 25a8 60bb dac4 d8bd e6e5 02be 96c7 393e
00000190: f2cb adbd cb39 a73c 37b4 70bb 328d 08be
000001a0: 4164 8a3e c6b8 c6bd 680f 523e 5154 803e
000001b0: e906 403d 40c9 803e 09ae 4f3c 5b91 1c3e
000001c0: 9a5a 0cbc 8ac5 cd3d d023 a23e 19b2 a73e
000001d0: 782c 97be 67f9 53be 1b45 7f3e dd1f e1bd
000001e0: 3221 f2bb dde9 8f3e 6b97 0b3e f9e3 573d
000001f0: 9768 c53c 66e3 a4bd 54b3 1c3e 1eb1 6ebc
00000200: 60d0 913e 74e0 27be 7861 413d 2bb7 98bc
00000210: 92f4 b9bd e996 063e 0428 84bd 7afe a8bd
00000220: 43ff 873e 350f 29bc 2aaa 1abc 7ffd 003e
00000230: dc47 7ebd 8239 e83d 7dc6 8f3d 90e7 523e
00000240: 233a 933d 20c4 fa3c fc77 20bd 8086 6b3e
00000250: f9f9 20be ec94 69be 2b84 4b3e 4a68 09be
00000260: 3767 a83d 5202 5d3e 0e7f 8d3e c14e 76bd
00000270: eb0f 203e 2718 eebd b5a3 263e 0857 6ebd
00000280: f747 0c3e 9350 19be eade 02be 0455 3c3d
00000290: edeb 48be 09a2 9d3e db72 253e 3384 6b3e
000002a0: 1f46 f03d 5315 653e 1dd5 a83d cde5 453e
000002b0: f2e7 3a3e 64e4 333e c02e 453e 471a 8c3e
000002c0: 3d0e 883e 6668 4ebe 17b2 973e 89e2 b3bd
000002d0: 5125 d5bb a58d ebbd 949b 4a3d b447 27be
000002e0: ee53 46be 320c 9e3d 249f 733e bedb 76be
000002f0: d7cc 44be 39cd 0dbd abf2 103e 9735 823e
00000300: 17f5 153e d926 3cbd b04a 19bb 4cdb d9bd
00000310: a1b3 afbd cbfb aa3e e295 703e ca11 573e
00000320: 3675 80bd 0371 333e 269b 403e 6b25 883c
00000330: fb19 d33c a279 b53d 17f6 483e 6c72 75bd
00000340: 1de5 fd3d 1b8d 6bbe 2938 ee3d 18cb 133e
00000350: 9550 4ebd 8d79 49be 37c7 f8bd c555 f0bd
00000360: 9925 b3bc 73e8 443d 6e48 d03d 9cc5 82be
00000370: 7837 7dbe 278f 1d3d 9930 8c3e 9a90 a33e
00000380: 6122 43be 15f9 89bc 81a7 a9bc b89f 7b3e
00000390: ea59 523e e45e d1bd e7c9 2ebe 325e 2dbe
000003a0: f270 5ebe a004 e6bd 1418 903c 02eb ef3d
000003b0: 70da 40be 6660 c2bd d834 8ebd 95fa 35be
000003c0: 8f19 f43b 86ba 283e 13f8 a5be e4b7 62be
000003d0: c382 0b3e 70c4 a63e 4f3b 09be ccb2 563e
000003e0: 00cf a03e ecf2 2dbe 749f 6ebe bbaf bd3e
000003f0: b948 7c3e a147 0d3e 75f5 b9bd 7180 9b3d
-0.11520886 0.04023355 0.14992838 0.27245587 0.37698314 -0.26590884 0.085248895 -0.2715738
-0.24565193 -0.009853369 -0.10405242 0.010219457 -0.07655082 -0.13279957 -0.01877926 -0.1297016
-0.15120158 0.28343737 -0.27745548 -0.030825643 0.17952734 0.19166009 -0.14695127 0.2135597
0.16947085 -0.27619708 -0.22860351 0.23606955 0.15523587 0.15456545 -0.19195357 0.064335376
0.1569441 -0.20974052 -0.07036877 -0.016322361 -0.116015516 0.24691091 0.10259257 0.22207282
0.05043199 0.1317041 0.21334372 0.18113546 0.13998282 0.21332629 0.2690935 -0.009427226
0.12978043 -0.0462452 0.10977774 0.032644592 -0.19517428 -0.061406583 -0.14403138 -0.2062641
-0.084012985 0.16199489 -0.02694224 -0.20898639 -0.018133206 0.12284456 0.27476895 0.17547832
-0.08552954 0.31177226 0.28167185 0.23689848 0.11332086 -0.1119906 -0.015434161 -0.18645611
0.052573312 0.20602454 -0.13628168 0.2706077 -0.11635586 -0.22736406 -0.2745957 -0.2597835
-0.0945047 0.24340683 -0.21962816 -0.25004393 0.17735867 0.17383473 -0.28332132 0.24474552
0.30515608 -0.3050551 -0.18982148 0.14713264 0.24986981 0.1321528 -0.14141974 -0.21688575
-0.003427991 -0.105844215 -0.12783012 0.18142542 -0.08486165 0.0204133 -0.003672851 -0.13335112
0.27029613 -0.097032115 0.2051369 0.25064328 0.04688159 0.25153542 0.012675771 0.15289824
-0.008566523 0.10047443 0.31667948 0.32753065 -0.29526114 -0.20700608 0.24928705 -0.109924056
-0.007389211 0.2810811 0.1363198 0.052707646 0.024097724 -0.08051185 0.15302783 -0.014568595
0.2847929 -0.16394216 0.047212094 -0.018642029 -0.09079851 0.13143505 -0.06452945 -0.082516626
0.26561937 -0.010318567 -0.009439984 0.12596701 -0.06208025 0.11339094 0.070202805 0.20596147
0.07188823 0.030611098 -0.039176926 0.23000526 -0.15720357 -0.22810715 0.19874637 -0.1341869
0.08222812 0.21582916 0.27635998 -0.0601337 0.15631072 -0.116257004 0.16273387 -0.05818847
0.13699327 -0.14972143 -0.12780347 0.045979515 -0.19621249 0.30787686 0.16157095 0.22999649
0.117321245 0.22371416 0.08243773 0.19325943 0.18252543 0.17567593 0.19256115 0.27363798
0.26573363 -0.20157012 0.2962806 -0.087834425 -0.0065046926 -0.11501626 0.049464777 -0.16335946
-0.19367954 0.0771717 0.23791176 -0.24107262 -0.19218765 -0.034619544 0.1415507 0.2543151
0.14644276 -0.045935486 -0.0023390464 -0.10637531 -0.08579183 0.33395228 0.23494676 0.2100288
-0.06272356 0.1752358 0.18809184 0.016619405 0.025769224 0.0886109 0.19625126 -0.059923574
0.123972155 -0.23003046 0.116318054 0.14432943 -0.050369818 -0.19675274 -0.12147372 -0.11735109
-0.021868514 0.048073243 0.10170065 -0.2554139 -0.24728191 0.0384666 0.27380827 0.3194626
-0.19056083 -0.016842404 -0.020709755 0.24572647 0.20542112 -0.10223177 -0.17069207 -0.16930464
-0.21722773 -0.11231351 0.017589606 0.11714746 -0.18833327 -0.09491043 -0.06943673 -0.1777137
0.007449336 0.16477403 -0.32415828 -0.22140461 0.136241 0.32571745 -0.1340153 0.20966643
0.31407928 -0.16987199 -0.23303014 0.37048134 0.24637116 0.13796856 -0.0908002 0.07592858

module2.fc2.bias f4 [8]
00000000: ee8e 913e 95e5 fabc 1be6 b43d b9b5 47be
00000010: 4685 44be f9df a13d 7099 453e 7dc5 b43d
0.2842936 -0.030627051 0.08832952 -0.19502915 -0.19191465 0.079040475 0.19296813 0.088267304

module2.fc3.weight f4 [1, 8]
00000000: e5b1 aa3e ab0a 86be 0c02 b73e e99e e4be
00000010: da2e f7be d8a5 c3be 1728 9fbe ad08 f23e
0.33338848 -0.26180014 0.3574375 -0.4465249 -0.48277932 -0.38212466 -0.31085274 0.47272244

module3.fc1.weight f4 [16, 248]
00000000: f04c fd3d 26c7 dbbb 1c5c 083d 85c7 50bd
00000010: e654 cd3d 4856 cd3d ce7b 843c 8a71 0d3d
00000020: bf5b febb 6290 973d c879 2bbc 8f4e dc3c
00000030: 7a12 db3d 7c56 00bc 885f 99bd 24e4 d23c
00000040: 1e3c cabc 119a 2abc 9cab 1738 7d60 aebc
00000050: a991 0d3c 4c79 8c3c 45ea 3abd 20cc 223d
00000060: b347 ce3d f22e 05bc dfa5 a6bc b164 c43d
00000070: a1c7 2c3c 49cd a9bc 5975 14bd 7055 1cbd
00000080: d23f 203d f71f 2abc 3e46 ed3d 6198 963d
00000090: 57a9 693c 297a 91bc ba50 0e3c de0d 3e3b
000000a0: 0ff2 aa3d 0c43 1c3d d471 dcbc d20a 0fbc
000000b0: 75a3 663a 2615 5fbb 0cc9 5abd 6bf8 8a3d
000000c0: 2413 12bc b069 a03d b395 6ebd 95bd 603d
000000d0: 87ab aa3d 5e0c 92ba c97b c8bc ae42 7a3d
000000e0: 122b 48bd 48ff 4bbd 0b61 b8bb cc68 0e3c
000000f0: 7f97 ef39 a00e a63d a74b 5dbd 6454 613c
00000100: a2f7 a03c 4e7c 103d 8c3b 423c 499c 0e3c
00000110: 336a 5e3b 1a6d c1bc bb3e d63d 2ae2 063d
00000120: 8597 f7bc b16a 58bd f6f7 3b3d c2e3 0bbc
00000130: 71b8 f13c eefe 78bd c783 753c 93f9 1ebd
00000140: 4e40 d2bc f47d 593d 23b2 a13d 1f05 503d
00000150: a62d e83c e60c 2abd 1190 1e3d 99f2 ac3d
00000160: 8b63 a2bd 4003 c33a 78c6 ca3d 13eb 953d
00000170: 7331 443d edc2 a93a 4921 1dbd d155 293d
00000180: 7e65 8bbb ee07 a5bd 045c dabb 9033 843d
00000190: ed2d ca3c 4f55 7dbd 606d 55bd 5577 093c
000001a0: d983 bf3c f6bc a53d 002e aa3a e2b8 80bd
000001b0: 29d7 0b3d 3159 fcbb 72e9 903d d909 5e3c
000001c0: b85d c2bd 88d6 3f3d 9db0 503d 0aa8 9d3d
000001d0: 2984 cf3c 5e8f 343c 5952 b5bd 7ea3 ce3d
000001e0: 24d6 b93d 11ab 3abc 3423 253d c4db a0bd
000001f0: b107 9b3d 4cc1 213d 8ab5 03bd fba2 7f3d
00000200: a05e be3c fd5f d3bc f834 14bd 5da4 763d
00000210: d9df 84bc 076b d2bc 2358 0d3d 16d8 973d
00000220: 5ed6 213c 7796 bfb9 6d28 c53d a26f 343c
00000230: 1612 b0bb 191a f13c 8fac 8f3d 320c 9e3c
00000240: a5a3 02be 5cac 82bc cc47 ceba 3fbc b43d
00000250: c104 273b 9088 e43c 6fa1 de3c 57ff 913c
00000260: f326 10bc 1071 b8bd 8065 f9bc 4efc 6d3c
00000270: 327f 343d 0633 c43d 5449 b83d 2adc ae3c
00000280: 5960 bbbc 63fe ddbc c99d ccbb c34b 373d
00000290: 46b9 2d3d 0eb4 49bc 9286 bc3d 069c 623d
000002a0: 72c2 c33c e928 633c 5537 ed3c d5c1 23bd
000002b0: 2077 cc3c 74ef c13d 185e d63c 4450 263d
000002c0: e786 ad3c 1253 343d 63fa b1bc d854 ac3d
000002d0: 3f38 c53d 4d0f 863d 537e b23d b79c b63d
000002e0: 2aea 00bd 88ba 5fbd cd77 663c 7530 373d
000002f0: 8cf3 b7bc 8cdc 64bc 2798 033d 3de5 a03d
00000300: b0db fb3d 5027 87bc 18de a53d cf13 f33c
00000310: cfb0 88bd 2f85 773b d26c 753d 21d6 bc3c
00000320: be7b 113e d960 963d d299 84bd 4228 20bd
00000330: f61c b93d ddac c3bb 46a8 9f3c 3f59 583d
00000340: 1868 9f3d 0a14 8ebc 8e7b a8bd ec5a 313d
00000350: 8118 0ebc 4e4d f73b 82fe 1ebd 6f24 743d
00000360: c475 643c 3653 3cbb 8c5c b63c ce6c ac3c
00000370: be13 923d 47de 1d3d 5406 143e 3720 9abd
00000380: 586b 06bd dc80 a33d 3d18 4cbb 4a22 95bc
00000390: 9032 453d 0f9c 7fbd 4aa7 8c3d 7097 063d
000003a0: 3e5c fe3c e55b 73bb 6cec babc d630 b33c
000003b0: 5551 b03a 2a08 4d3d ec9b 4d3d 0a68 bf3d
000003c0: e666 9f3d ecae 33bd 3e3e 49bb 8c55 debc
000003d0: 4124 81ba 5270 af3d 769d 193d 1c2a 953d
000003e0: 6916 1fbd e85c 80bd 121d 94bd ee59 3d3d
000003f0: d3a4 2ebd 886f 9cbd 47aa a7bd fd45 2b3d
0.1236819 -0.00670709 0.033290967 -0.050971527 0.10025959 0.100262225 0.016172316 0.034532107
-0.007762402 0.07400586 -0.010466047 0.026892928 0.106968835 -0.0078331195 -0.07488924 0.025743552
-0.02468687 -0.010412709 3.616103e-05 -0.021286244 0.008640685 0.017147683 -0.045633573 0.03974545
0.10072269 -0.008128868 -0.020342765 0.09589518 0.010545642 -0.02072777 -0.036244724 -0.038167417
0.039123364 -0.010383598 0.11585663 0.07353283 0.014261565 -0.017758446 0.008686239 0.0028999965
0.0834695 0.03814988 -0.026909746 -0.008730607 0.00087981607 -0.0034039705 -0.05341439 0.06785663
-0.008915696 0.07832658 -0.058248233 0.0548683 0.083334975 -0.0011142602 -0.024473088 0.061098747
-0.0488692 -0.049804002 -0.005626803 0.008691978 0.00045698506 0.08108258 -0.054027226 0.01375303
0.01964933 0.035274796 0.011855017 0.0087042535 0.0033937811 -0.023611594 0.10461184 0.03293053
-0.030223617 -0.052836124 0.04589077 -0.008538188 0.029506894 -0.060789995 0.014985031 -0.03881223
-0.025665428 0.053098634 0.07895305 0.050786134 0.02834208 -0.041516207 0.03871161 0.08444709
-0.079291426 0.0014878288 0.09901136 0.073202275 0.04789872 0.0012951769 -0.03836182 0.041341607
-0.004254042 -0.08058153 -0.006663801 0.06455147 0.024680102 -0.061848935 -0.05210626 0.008390267
0.0233783 0.08092682 0.001298368 -0.062852636 0.03414074 -0.007701062 0.07075776 0.013552153
-0.09490532 0.046835452 0.05094968 0.076980665 0.025331574 0.0110205095 -0.08853597 0.100897774
0.09074047 -0.0113933245 0.040316775 -0.07854417 0.075698264 0.039490983 -0.03215555 0.06241129
0.02323848 -0.025802607 -0.036183327 0.060215343 -0.01622002 -0.0256858 0.03450788 0.07414262
0.009877769 -0.00036542464 0.09626851 0.011012943 -0.0053732498 0.02943139 0.07015335 0.019292925
-0.12757738 -0.015951328 -0.001573795 0.088249676 0.0025485011 0.02789715 0.027176587 0.01782195
-0.008798349 -0.0900594 -0.030443907 0.014525486 0.044066615 0.095800444 0.08998361 0.021345217
-0.02287309 -0.02709884 -0.0062443954 0.044749986 0.04241302 -0.012310995 0.09205355 0.055324577
0.02389643 0.013864734 0.028957048 -0.039979775 0.024959147 0.094695 0.026167914 0.04060389
0.02118249 0.044024535 -0.021725839 0.0841462 0.09629869 0.06545887 0.08715501 0.0891661
-0.031473316 -0.05462125 0.014066649 0.044723947 -0.022455 -0.013968598 0.032127526 0.07856224
0.122977614 -0.016498238 0.08099002 0.029672531 -0.066743486 0.0037768593 0.059918232 0.023051323
0.1420736 0.07342691 -0.064746514 -0.039100893 0.09038727 -0.0059715346 0.019489419 0.052819487
0.07783526 -0.01734354 -0.08226691 0.0432996 -0.008672834 0.0075470572 -0.038816936 0.05960506
0.013944093 -0.002873612 0.022260927 0.021047976 0.07132672 0.03854206 0.14455539 -0.07525676
-0.032817215 0.07983562 -0.0031142377 -0.018204827 0.048143923 -0.06240469 0.06867845 0.032859266
0.031049844 -0.003713363 -0.022817813 0.021873873 0.0013451973 0.050056614 0.050197527 0.09346016
0.07783298 -0.04386799 -0.0030707265 -0.027140401 -0.0009852723 0.08566345 0.037503682 0.07283422
-0.03883973 -0.062677205 -0.07232107 0.04622834 -0.042637657 -0.076384604 -0.08186775 0.041814793

module3.fc1.bias f4 [16]
00000000: 7ccf 3a3d c3b0 6abd cf02 993d 5220 c63c
00000010: fec8 503e bdab b83d 907c 8ebd 0aa4 983d
00000020: a829 92bd fed8 5cbd 23be b9bd 0d26 14be
00000030: ffd7 a33d 1fd5 4dbd 02fa 3a3e efd5 d23d
0.04560803 -0.05729748 0.07471239 0.024185333 0.20389172 0.090171315 -0.06957352 0.07453163
-0.071368515 -0.053917877 -0.09069469 -0.1446764 0.08000182 -0.050252076 0.18259433 0.10294711

module3.fc2.weight f4 [4, 16]
00000000: 653a afbd 7969 aebd 031d 003e 44c7 4cbe
00000010: c9fe cfbe ca03 9bbd 73d3 583e 6cd4 593e
00000020: db40 39be 1534 29be acdd 1b3e f171 19be
00000030: 58ad c3bc 249b 623d f8fd d0be 1a6d 413c
00000040: 34b0 f8bd 55cf 38bd ec16 0b3e 16af ce3d
00000050: 1940 8e3e ea2f f73d 4081 f73c 577d be3d
00000060: bacc 273e 416a 373e fe2a 2d3e 532b 473e
00000070: 4439 3c3d a1ab 2fbc cfa9 6c3e e6a0 edbc
00000080: 5edf 343d 7bf5 52be dad2 663e 2616 3d3e
00000090: 3b95 383e ef8a 763e 619a 8dbe e8ef 113e
000000a0: cb12 88be 1822 5bbe 43c5 bfbe 7713 96be
000000b0: edce 3b3e 8124 73be bca8 2e3e 38b9 9c3d
000000c0: 6771 4abc cdba 0dbe 4087 113e 91c4 5fbb
000000d0: 8a7a 40be e44f 9fbd a73a 7d3c ba45 293e
000000e0: 1e5a d1bd 318e 49bd 0561 ccbd 5c17 863c
000000f0: 7bb2 8dbe 5ab7 ecbd 6731 c4be 0f32 12be
-0.0855606 -0.08516211 0.12511067 -0.19997889 -0.40624073 -0.07569082 0.21174411 0.21272439
-0.18091147 -0.16523774 0.1522128 -0.14984871 -0.023886368 0.055323735 -0.40818763 0.011805797
-0.12142983 -0.045119602 0.13582963 0.10091989 0.27783278 0.12069686 0.030212998 0.093012504
0.1638669 0.17911626 0.16910931 0.1945012 0.04595305 -0.010722072 0.23111652 -0.029007386
0.044158332 -0.20601456 0.22541371 0.1846548 0.18025677 0.24076436 -0.27656844 0.14251673
-0.26576838 -0.21399724 -0.37455186 -0.29311725 0.18340655 -0.23744394 0.17056555 0.07652515
-0.012356139 -0.1384079 0.1421175 -0.0034144262 -0.18796745 -0.0777891 0.015455878 0.16530505
-0.102222666 -0.04920787 -0.099794425 0.01636856 -0.27675232 -0.11558409 -0.3831894 -0.14276908

module3.fc2.bias f4 [4]
00000000: 0420 1d3e 22cf cb3d c8fb 313e fc4e 5dbe
0.15344244 0.09951617 0.17381203 -0.21612161

module3.fc3.weight f4 [1, 4]
00000000: 55ba fcbe df66 ea3b 3f46 8e3e 438c 5dbe
-0.4936091 0.0071533765 0.2778797 -0.21635537

module4.fc1.weight f4 [16, 193]
00000000: 9464 33bd 0b4d 083e 2783 543d 68e6 823c
00000010: e37f e23b 111a b4bc 826b 023d 98c0 d43c
00000020: b010 853d c359 203d a471 293e 96b8 2c3d
00000030: 24b5 dabd cfaa ff3c d023 fa3d 0526 873d
00000040: 6139 b03d f4c9 efbc a62b 2bbd c7d4 4ebe
00000050: 95be 59be 450b 98b9 1852 82bd 032c 1e3d
00000060: 88b5 06be 9347 80bd eadf 693d 8d9c 973d
00000070: e8ed e1ba f89a 1a3d c7f6 b4bd 598f 16bc
00000080: c27c 9e3d 6ca0 a03d da40 073d ac62 ba3d
00000090: fd2c 3ebe f582 a6bd 3b24 acbd a4bc b0bd
000000a0: 446b 61bd fd5f 4bbe f1ee 66bc 8284 8dbd
000000b0: dbc0 3cbe 181d 20be cf66 83be d67f 2cbe
000000c0: a7bb dcbd 15be e2bd 3855 a03d d835 29bb
000000d0: bb83 253d 428a 83bc 22b4 88bc 9434 b53a
000000e0: 64ca 0cbc b139 d6bc 4b6e adbd 5436 bd3c
000000f0: 3c0b cd3c 7a4e d9bd 3329 273e cb6b 673c
00000100: f21e 1a3e 8fdd 9cbc 0d38 4ebd 2ba4 bf3d
00000110: 0131 8e3d 58b4 1abd 0149 233d 978b 50be
00000120: f708 753d 2532 34be e311 253e 6cd4 cdbc
00000130: a279 c63d 9228 4bbd 5c8a 283d d68f 9d3b
00000140: c8d7 0cbe 6406 e33c f7b9 bdbd f2c2 69bc
00000150: 072d fa3d 35ae 233e cad4 a93d 078d dcbd
00000160: fef6 90bd 7789 6c3c 3b48 623c 8002 a63d
00000170: bdb8 07be 0579 fcbd bd95 4bbe d4a9 003e
00000180: bd1e 65bc 27e4 52ba 13ed 043c e124 923d
00000190: 6176 06be 4741 003e 0d42 133e 1cfe 02bd
000001a0: 41ca 773b 9e9d 84bd ff6a a7bd cfa6 023d
000001b0: 9fd4 35be 3c01 f43d a05d 1fbc 7cbf 9fbc
000001c0: ed85 8c3d 69aa abbb 9cbe 5dbe 69ec 30be
000001d0: 2bf2 8d3d 4c72 323b 0726 093d 8ae8 55bc
000001e0: 65be 02be fe4e 04bd 9006 dbbc 1431 473e
000001f0: d098 44be c4d5 b0bd f97d 9a3d b2c7 19be
00000200: 96a0 58bd f986 a53d 5d97 8abd 021a ef3b
00000210: c704 83bd 4239 dabc b696 233c a884 8b3d
00000220: 76bb 01be cfe5 0abc 1a6e b1bc 49c3 03be
00000230: 7e1f d93b af15 32be 49c7 893d 36e6 6cbd
00000240: 926d d93c f264 a23d 4e4c c23d 5e0b b33d
00000250: 795e 663c d967 06be 60c2 d4bd 002d a9bd
00000260: d620 43bd f9a8 ce3c 9ed7 acbd 5b7d c4bd
00000270: 0161 ff3b 9d4d 6b3d d38f 4a3d d61a 29bd
00000280: 6be2 df3b 53db e23d 5667 193d a188 9c3c
00000290: 235e 43bd 047a 703d 5c58 cd3d b835 0b3e
000002a0: 627f 8a3d 2a49 3d3e a095 53bc eb18 7dbe
000002b0: 51bc 4dbd a41d 053d 7173 083c d3ff cf3b
000002c0: aaf8 0cbd e7ca 9d3d da6d f53c c5a9 b03d
000002d0: 67b5 c63d 3081 fd3c 53d2 3e3d f192 d5bc
000002e0: 0d09 0a3e 4e00 47be 3844 f43d 8539 dc3c
000002f0: 2ce2 1f3c 221a 2c3d 98b1 b9bd 74d9 d6bd
00000300: 43c4 563d ea8c babd 8307 9abb 7be7 443d
00000310: 9822 7f3d f5a5 28be 9806 8bbd 705e e7bd
00000320: 7c70 c8bc 06af 48bd 57d5 83bd 3e32 d13d
00000330: e19c 91bd e00a 4abe bb0e d33d a641 dbbd
00000340: 81d9 98bd c4e1 fd3c 39bb 1ebe 8669 05be
00000350: 5ba3 48be 0131 22be d2a8 57bc 1cfe cabd
00000360: 90b1 38be 1a1d 893c 7bfe 29be 9207 3dbe
00000370: c365 ba3c 5fdd 29be c8b1 34be fb2a de3d
00000380: 3b87 a5bc 9927 bcbc 0dc0 823d ae06 b33d
00000390: a127 c4bc 47e6 fdbd b220 6ebd e55c 6fbe
000003a0: ad88 f2bd 7732 51bd 3e3f 72bd 5ca5 303d
000003b0: e325 b5bd 03ba 80be de48 fcbd 735d cebd
000003c0: e3fd f53c 7cb7 debd 85d3 7d3d 1cfb 29bd
000003d0: d296 6d3d ae15 adbd d5e1 68bd 870c 3cbd
000003e0: 483e dd3d a1de 073d dfa5 bbbd 759a a0bd
000003f0: 4f3c 24be 0a72 98bd 4fb6 00bd b0d0 743d
-0.04379709 0.1331064 0.05188289 0.015979007 0.006912218 -0.021985086 0.03184081 0.025970742
0.064973235 0.039148103 0.16547257 0.042168222 -0.10679081 0.031209378 0.12213862 0.065990485
0.08604694 -0.029271103 -0.041789673 -0.20198356 -0.21264108 -0.00029000096 -0.063633144 0.03861619
-0.13155186 -0.06263652 0.057098307 0.074029066 -0.0017237039 0.037745446 -0.088361315 -0.00918945
0.077386394 0.07843098 0.03302083 0.091008514 -0.18571849 -0.08130447 -0.08405348 -0.0862973
-0.055033937 -0.19860835 -0.014095054 -0.069100395 -0.18432944 -0.15636098 -0.25664374 -0.1684564
-0.10777979 -0.110714115 0.07828754 -0.0025819447 0.04040883 -0.016057137 -0.016687457 0.0013824874
-0.008593176 -0.026150556 -0.08468302 0.023097195 0.025029771 -0.10610671 0.1632431 0.014124821
0.15050867 -0.019148616 -0.050346423 0.093574844 0.069429405 -0.037769645 0.039864544 -0.2036575
0.059823003 -0.17597254 0.16120104 -0.025125705 0.09691168 -0.049599238 0.041147575 0.0048084063
-0.13754189 0.027713008 -0.092639856 -0.01426767 0.122156195 0.15984423 0.082925394 -0.10769086
-0.0707836 0.014437071 0.013811166 0.081059456 -0.13254066 -0.1232777 -0.1988134 0.12564784
-0.013984379 -0.00080448616 0.0081131635 0.0713594 -0.13131095 0.12524901 0.14380665 -0.03198062
0.0037809762 -0.064753756 -0.08174705 0.031897362 -0.1775689 0.11914298 -0.009726912 -0.019500487
0.06861482 -0.0052388203 -0.21654743 -0.17277683 0.069309555 0.002722877 0.03348353 -0.01305593
-0.12767942 -0.032301895 -0.026736528 0.19452316 -0.19198918 -0.086345226 0.075435586 -0.15017584
-0.05288752 0.080823846 -0.067671515 0.0072968015 -0.063973956 -0.02663863 0.009984663 0.068124115
-0.12669167 -0.008477642 -0.021658946 -0.12867464 0.0066260686 -0.17391084 0.06727464 -0.057836734
0.026541505 0.0792941 0.0948721 0.087424025 0.01406061 -0.13125552 -0.103886366 -0.08260536
-0.047638737 0.025227057 -0.08439563 -0.09594222 0.007793546 0.057447065 0.049453568 -0.04128536
0.006832411 0.11076989 0.037452064 0.019108118 -0.047697198 0.058710113 0.10026619 0.13594711
0.067625776 0.18484941 -0.012914091 -0.24716537 -0.05022842 0.03249897 0.008328305 0.0063476353
-0.034416832 0.07704716 0.029959608 0.08626131 0.097025685 0.03094539 0.0465873 -0.026071044
0.13480015 -0.1943371 0.11927074 0.026882896 0.009758513 0.04201711 -0.090670764 -0.10490695
0.052433264 -0.091089085 -0.0047006025 0.04807232 0.06228885 -0.16469558 -0.06788367 -0.112973094
-0.0244677 -0.04899504 -0.06437176 0.10214661 -0.071100004 -0.19730711 0.10305544 -0.10705881
-0.074633606 0.030991443 -0.15501107 -0.13028535 -0.19593565 -0.15839006 -0.0131628085 -0.09911749
-0.18036485 0.01673751 -0.16600983 -0.18459919 0.022753602 -0.16588353 -0.17645943 0.108480416
-0.020206084 -0.0229681 0.06384287 0.087415084 -0.023944678 -0.123974375 -0.05813665 -0.2337528
-0.11842475 -0.051073518 -0.059142344 0.04312645 -0.08845117 -0.25141916 -0.12318586 -0.10076418
0.03002829 -0.108748406 0.0619693 -0.041499242 0.05800516 -0.08451401 -0.056855995 -0.045910385
0.10802895 0.0331713 -0.09162497 -0.0784196 -0.16038631 -0.07443626 -0.031423863 0.059769332

module4.fc1.bias f4 [16]
00000000: 2f84 8abd ff41 9f3c 31dd 913e 16f3 12be
00000010: de1c 293d d84b 3d3e 0f63 09bc 72f8 33bc
00000020: f1fd 823e e678 1abe 5e59 40be e164 a33e
00000030: 3ab3 913e 40f0 823e bac2 693e 9258 323e
-0.06763493 0.01944065 0.28489068 -0.14350542 0.041287296 0.18485963 -0.008385434 -0.010984527
0.25584367 -0.15085182 -0.18784091 0.31912902 0.28457052 0.2557392 0.22828189 0.174166

module4.fc2.weight f4 [4, 16]
00000000: 7836 fd3e 79ea 813d c540 223d c0f4 bdbd
00000010: b6de 7e3e a1c4 f0bd 8d42 703e 02bc c03e
00000020: 58bb 14bd e1a9 89bd a751 213e 7353 95be
00000030: d007 283d b2c0 073e f869 b63d afee 643d
00000040: 783f dbbe c61f b0be 4005 973e 0d4d ffbd
00000050: 24dc 6b3d a3a1 963e 9d6f acbe 085b b5be
00000060: 4ac4 b53e bec2 43be 211b b6be b36b 253e
00000070: 9816 cf3e 9929 b23e 2356 d43e 3aef 8c3e
00000080: 8604 c83e df64 b03d 4311 923d 567f 303e
00000090: ac6e b23e 056b adbe 5d95 d83e 6e9d dc3c
000000a0: bd38 8bbe 47ef bdbc 27b2 bb3e 5948 0dbd
000000b0: c363 bd3d 8cc3 93be 89b3 e33d f634 61bd
000000c0: aa29 d83e 4a52 3a3e 5e57 c4be 9f66 ce3e
000000d0: 8070 cb3e ac45 b4be 2aed 053f 53be 853e
000000e0: ab6f b8be 33f8 953e 873a 173e 1421 263e
000000f0: 3267 483d 58f9 6bbe 57e6 413e 4a24 c5be
0.4945562 0.0634355 0.03961255 -0.09275198 0.24889645 -0.11756254 0.23462887 0.3764344
-0.036311477 -0.06721855 0.15753804 -0.2916523 0.041023076 0.13257101 0.08906931 0.05589169
-0.4282186 -0.3439924 0.29496193 -0.12465868 0.05758299 0.29420194 -0.33678904 -0.35421014
0.3550132 -0.19117257 -0.35567573 0.16154365 0.40446925 0.34797361 0.41471967 0.27526265
0.3906595 0.0861299 0.07132199 0.17236075 0.3485006 -0.33870712 0.42301455 0.026930537
-0.27191725 -0.023185385 0.36659357 -0.034492824 0.09247544 -0.28860128 0.11118228 -0.054982148
0.42219287 0.18195453 -0.38347906 0.4031267 0.39734268 -0.35209405 0.5231501 0.26121768
-0.36022696 0.29290923 0.1476842 0.16223556 0.04892654 -0.23044336 0.18935524 -0.3850425

module4.fc2.bias f4 [4]
00000000: 5d11 d5bc f6ef fd3d b92b 013e 912c d93d
-0.026009256 0.123992845 0.12614335 0.106042035

module4.fc3.weight f4 [1, 4]
00000000: 7a86 1cbe cc18 323f 188b e7be da83 c3be
-0.15285674 0.6956909 -0.45223308 -0.38186532

final_fc1.weight f4 [32, 4]
00000000: c335 ed3e 1dea 8ebe 0557 c0bd 2e91 69be
00000010: 1e32 85be e8cb 01be 80f4 2b3e 0a2a 4c3e
00000020: 673c ca3e dbb7 6fbe 4abe f33e 2640 053f
00000030: f22c fb3e f97c 33bf c169 7dbe 684f 1f3d
00000040: 5d4f b03e 868c ccbe 1731 393e db61 9cbe
00000050: d5a6 e23e 0805 423e 5c20 7c3e bcab 703e
00000060: 3173 cebe f38b 953d eec4 65be 10ff 26bf
00000070: cc50 97bd 0172 e23e 8c98 96bd 81f9 8fbd
00000080: 5ad2 c8be f1e1 4f3e e765 64bd 123d 53be
00000090: 0e96 f3bd 9024 793e fdd7 a1be eb40 0f3f
000000a0: 9efc b6be 8f16 ab3e 9edc 9a3e 6930 d33d
000000b0: f6e7 c3be a20d 38be 4a75 71be 48e3 f0bd
000000c0: bf41 99bd f30d 37be ed71 a43e 42be b53e
000000d0: 23c6 35be abb0 2bbf d8bd 763e 64f5 c63d
000000e0: 1d1a b53e 4de2 95be fb9c e93e 6e6c 163e
000000f0: 9bb6 053f dc13 86be 823e aebe 0acf 77bd
00000100: 7c5d 003f b3e4 473e 873e f23e e016 7e3e
00000110: a05a e53e e413 bebe 97ba 353e cb88 9abe
00000120: ef5a 5f3e 9e83 3dbe 0140 b6bd dc2e 633e
00000130: ce21 0c3d 067d 04be 446d 94be 63fa 943e
00000140: c7a1 073f 8a96 27bf a0e4 f0bd 8a01 653e
00000150: 58b4 c4be f17d 8b3c 4240 933e ca12 0dbf
00000160: 33c2 b13e 87af 01be 6754 b3be 19f9 193f
00000170: f3cb e9bd 469b 033f d529 b7bd e5d1 2d3d
00000180: f8e5 d3bd d5ce a03d 678a 763e b0e3 e3bd
00000190: e4f4 5b3e 66e4 753e cc0b 023f e2fb 0ebe
000001a0: 5d5b aa3e f95c 18bf a76e 8fbd 79b5 f5bc
000001b0: f90a f6be 0592 1d3f 6796 a9bd f672 63be
000001c0: ee62 32be d828 993d e2ec 45bd 879c 7b3e
000001d0: f9e2 4fbe 08ba 25bf f1d1 1c3e 5d6a 283f
000001e0: 9c16 a83e 3f18 043f 8cc8 93be 4df5 233e
000001f0: 9b9e 843e 8c4e 743d 7135 f4bd c5ae df3e
0.4633008 -0.2791299 -0.09391598 -0.22809288 -0.260148 -0.1267544 0.16792488 0.19937912
0.39499208 -0.23409979 0.47606117 0.5205101 0.49057728 -0.7011257 -0.24747373 0.038894087
0.3443555 -0.3995096 0.18085133 -0.30543408 0.44267908 0.18947232 0.24621719 0.23503011
-0.4032226 0.07302084 -0.22438404 -0.65232944 -0.07388458 0.44227603 -0.07353315 -0.07030011
-0.39222986 0.20301034 -0.055761244 -0.20628765 -0.11893855 0.24330354 -0.31610098 0.5595843
-0.35739607 0.33415648 0.30246443 0.10311968 -0.3826291 -0.1797395 -0.23579898 -0.117621005
-0.07483243 -0.17876415 0.32118168 0.35496718 -0.17751364 -0.6706645 0.24095857 0.09714773
0.35371485 -0.29274216 0.4562758 0.146898 0.5223176 -0.26187027 -0.34032065 -0.060500182
0.50142646 0.19520836 0.4731333 0.24813414 0.44795704 -0.3712455 0.1774696 -0.3018249
0.21812032 -0.18507239 -0.088989265 0.22185844 0.034211926 -0.12938318 -0.28989613 0.2909728
0.5298123 -0.6546408 -0.11762357 0.22363868 -0.3841884 0.017027827 0.28759962 -0.55106795
0.34718475 -0.12664615 -0.3502533 0.6014572 -0.11415853 0.51408803 -0.08943526 0.0424365
-0.103465974 0.0785195 0.24076234 -0.11127412 0.21480137 0.24012908 0.5079925 -0.13963273
0.3327283 -0.59516865 -0.07003527 -0.02999376 -0.48055246 0.61550933 -0.0828064 -0.22211823
-0.17420551 0.074784935 -0.048321612 0.24571429 -0.20301427 -0.64736986 0.15314461 0.657873
0.3282975 0.51599497 -0.28863943 0.16011544 0.25902256 0.05964522 -0.11924256 0.43688026

final_fc1.bias f4 [32]
00000000: 27bb cebd 2736 d43e e804 a23e 8a78 2e3d
00000010: 926f ec3e 545a d6be 81fc a1bd 911c 89be
00000020: 773d cabe 06a0 de3c 2c79 4e3d 485e 65be
00000030: 67b4 ea3e 75c8 9c3c 2de8 b1be 9338 f4be
00000040: 3aa7 ea3e 3094 c2bb f93a 78bd c2fb 9b3e
00000050: dc26 6f3e 3765 2fbd 06e7 c73c 7405 a6be
00000060: 7555 57bd bbe8 f03e ce65 b4be 9550 61be
00000070: 05a5 e23d 52d4 bf3e 56b0 9ebc ae21 c3bd
-0.1009429 0.41447565 0.31644368 0.042595424 0.4617887 -0.4186579 -0.079094894 -0.26779607
-0.3950002 0.027175914 0.050408527 -0.22399247 0.4584076 0.019138554 -0.3474745 -0.47699413
0.4583071 -0.0059380755 -0.060603116 0.30465513 0.23354667 -0.042821135 0.024402153 -0.32426035
-0.052571733 0.4705256 -0.3523392 -0.22003396 0.11066631 0.37466675 -0.019371193 -0.09527908
